<?xml version="1.0"?>
<net name="gaze-estimation-adas-0002" version="6" batch="1">
	<layers>
		<layer name="right_eye_image" type="Input" precision="FP32" id="0">
			<output>
				<port id="0">
					<dim>1</dim>
					<dim>3</dim>
					<dim>60</dim>
					<dim>60</dim>
				</port>
			</output>
		</layer>
		<layer name="Mul1_2037/Fused_Mul_/FusedScaleShift_" type="ScaleShift" precision="FP32" id="1">
			<data broadcast="0" />
			<input>
				<port id="0">
					<dim>1</dim>
					<dim>3</dim>
					<dim>60</dim>
					<dim>60</dim>
				</port>
			</input>
			<output>
				<port id="1">
					<dim>1</dim>
					<dim>3</dim>
					<dim>60</dim>
					<dim>60</dim>
				</port>
			</output>
			<blobs>
				<biases offset="0" size="12" />
				<weights offset="12" size="12" />
			</blobs>
		</layer>
		<layer name="102" type="Convolution" precision="FP32" id="2">
			<data dilations="1,1" group="1" kernel="3,3" output="32" pads_begin="1,1" pads_end="1,1" quantization_level="I8" strides="1,1" />
			<input>
				<port id="0">
					<dim>1</dim>
					<dim>3</dim>
					<dim>60</dim>
					<dim>60</dim>
				</port>
			</input>
			<output>
				<port id="1">
					<dim>1</dim>
					<dim>32</dim>
					<dim>60</dim>
					<dim>60</dim>
				</port>
			</output>
			<blobs>
				<biases offset="24" size="128" />
				<weights offset="152" size="3456" />
			</blobs>
		</layer>
		<layer name="103" type="ReLU" precision="FP32" id="3">
			<input>
				<port id="0">
					<dim>1</dim>
					<dim>32</dim>
					<dim>60</dim>
					<dim>60</dim>
				</port>
			</input>
			<output>
				<port id="1">
					<dim>1</dim>
					<dim>32</dim>
					<dim>60</dim>
					<dim>60</dim>
				</port>
			</output>
		</layer>
		<layer name="Mul1_1977/Fused_Mul_/FusedScaleShift_" type="ScaleShift" precision="FP32" id="4">
			<data broadcast="0" />
			<input>
				<port id="0">
					<dim>1</dim>
					<dim>32</dim>
					<dim>60</dim>
					<dim>60</dim>
				</port>
			</input>
			<output>
				<port id="1">
					<dim>1</dim>
					<dim>32</dim>
					<dim>60</dim>
					<dim>60</dim>
				</port>
			</output>
			<blobs>
				<biases offset="3608" size="128" />
				<weights offset="3736" size="128" />
			</blobs>
		</layer>
		<layer name="105" type="Convolution" precision="FP32" id="5">
			<data dilations="1,1" group="1" kernel="3,3" output="16" pads_begin="1,1" pads_end="1,1" quantization_level="I8" strides="2,2" />
			<input>
				<port id="0">
					<dim>1</dim>
					<dim>32</dim>
					<dim>60</dim>
					<dim>60</dim>
				</port>
			</input>
			<output>
				<port id="1">
					<dim>1</dim>
					<dim>16</dim>
					<dim>30</dim>
					<dim>30</dim>
				</port>
			</output>
			<blobs>
				<biases offset="3864" size="64" />
				<weights offset="3928" size="18432" />
			</blobs>
		</layer>
		<layer name="106" type="Convolution" precision="FP32" id="6">
			<data dilations="1,1" group="1" kernel="3,3" output="64" pads_begin="1,1" pads_end="1,1" quantization_level="I8" strides="1,1" />
			<input>
				<port id="0">
					<dim>1</dim>
					<dim>16</dim>
					<dim>30</dim>
					<dim>30</dim>
				</port>
			</input>
			<output>
				<port id="1">
					<dim>1</dim>
					<dim>64</dim>
					<dim>30</dim>
					<dim>30</dim>
				</port>
			</output>
			<blobs>
				<biases offset="22360" size="256" />
				<weights offset="22616" size="36864" />
			</blobs>
		</layer>
		<layer name="107" type="ReLU" precision="FP32" id="7">
			<input>
				<port id="0">
					<dim>1</dim>
					<dim>64</dim>
					<dim>30</dim>
					<dim>30</dim>
				</port>
			</input>
			<output>
				<port id="1">
					<dim>1</dim>
					<dim>64</dim>
					<dim>30</dim>
					<dim>30</dim>
				</port>
			</output>
		</layer>
		<layer name="Mul1_1941/Fused_Mul_/FusedScaleShift_" type="ScaleShift" precision="FP32" id="8">
			<data broadcast="0" />
			<input>
				<port id="0">
					<dim>1</dim>
					<dim>64</dim>
					<dim>30</dim>
					<dim>30</dim>
				</port>
			</input>
			<output>
				<port id="1">
					<dim>1</dim>
					<dim>64</dim>
					<dim>30</dim>
					<dim>30</dim>
				</port>
			</output>
			<blobs>
				<biases offset="59480" size="256" />
				<weights offset="59736" size="256" />
			</blobs>
		</layer>
		<layer name="109" type="Convolution" precision="FP32" id="9">
			<data dilations="1,1" group="1" kernel="3,3" output="32" pads_begin="1,1" pads_end="1,1" quantization_level="I8" strides="2,2" />
			<input>
				<port id="0">
					<dim>1</dim>
					<dim>64</dim>
					<dim>30</dim>
					<dim>30</dim>
				</port>
			</input>
			<output>
				<port id="1">
					<dim>1</dim>
					<dim>32</dim>
					<dim>15</dim>
					<dim>15</dim>
				</port>
			</output>
			<blobs>
				<biases offset="59992" size="128" />
				<weights offset="60120" size="73728" />
			</blobs>
		</layer>
		<layer name="left_eye_image" type="Input" precision="FP32" id="10">
			<output>
				<port id="0">
					<dim>1</dim>
					<dim>3</dim>
					<dim>60</dim>
					<dim>60</dim>
				</port>
			</output>
		</layer>
		<layer name="Mul1_1965/Fused_Mul_/FusedScaleShift_" type="ScaleShift" precision="FP32" id="11">
			<data broadcast="0" />
			<input>
				<port id="0">
					<dim>1</dim>
					<dim>3</dim>
					<dim>60</dim>
					<dim>60</dim>
				</port>
			</input>
			<output>
				<port id="1">
					<dim>1</dim>
					<dim>3</dim>
					<dim>60</dim>
					<dim>60</dim>
				</port>
			</output>
			<blobs>
				<biases offset="133848" size="12" />
				<weights offset="133860" size="12" />
			</blobs>
		</layer>
		<layer name="93" type="Convolution" precision="FP32" id="12">
			<data dilations="1,1" group="1" kernel="3,3" output="32" pads_begin="1,1" pads_end="1,1" quantization_level="I8" strides="1,1" />
			<input>
				<port id="0">
					<dim>1</dim>
					<dim>3</dim>
					<dim>60</dim>
					<dim>60</dim>
				</port>
			</input>
			<output>
				<port id="1">
					<dim>1</dim>
					<dim>32</dim>
					<dim>60</dim>
					<dim>60</dim>
				</port>
			</output>
			<blobs>
				<biases offset="133872" size="128" />
				<weights offset="134000" size="3456" />
			</blobs>
		</layer>
		<layer name="94" type="ReLU" precision="FP32" id="13">
			<input>
				<port id="0">
					<dim>1</dim>
					<dim>32</dim>
					<dim>60</dim>
					<dim>60</dim>
				</port>
			</input>
			<output>
				<port id="1">
					<dim>1</dim>
					<dim>32</dim>
					<dim>60</dim>
					<dim>60</dim>
				</port>
			</output>
		</layer>
		<layer name="Mul1_1953/Fused_Mul_/FusedScaleShift_" type="ScaleShift" precision="FP32" id="14">
			<data broadcast="0" />
			<input>
				<port id="0">
					<dim>1</dim>
					<dim>32</dim>
					<dim>60</dim>
					<dim>60</dim>
				</port>
			</input>
			<output>
				<port id="1">
					<dim>1</dim>
					<dim>32</dim>
					<dim>60</dim>
					<dim>60</dim>
				</port>
			</output>
			<blobs>
				<biases offset="137456" size="128" />
				<weights offset="137584" size="128" />
			</blobs>
		</layer>
		<layer name="96" type="Convolution" precision="FP32" id="15">
			<data dilations="1,1" group="1" kernel="3,3" output="16" pads_begin="1,1" pads_end="1,1" quantization_level="I8" strides="2,2" />
			<input>
				<port id="0">
					<dim>1</dim>
					<dim>32</dim>
					<dim>60</dim>
					<dim>60</dim>
				</port>
			</input>
			<output>
				<port id="1">
					<dim>1</dim>
					<dim>16</dim>
					<dim>30</dim>
					<dim>30</dim>
				</port>
			</output>
			<blobs>
				<biases offset="137712" size="64" />
				<weights offset="137776" size="18432" />
			</blobs>
		</layer>
		<layer name="97" type="Convolution" precision="FP32" id="16">
			<data dilations="1,1" group="1" kernel="3,3" output="64" pads_begin="1,1" pads_end="1,1" quantization_level="I8" strides="1,1" />
			<input>
				<port id="0">
					<dim>1</dim>
					<dim>16</dim>
					<dim>30</dim>
					<dim>30</dim>
				</port>
			</input>
			<output>
				<port id="1">
					<dim>1</dim>
					<dim>64</dim>
					<dim>30</dim>
					<dim>30</dim>
				</port>
			</output>
			<blobs>
				<biases offset="156208" size="256" />
				<weights offset="156464" size="36864" />
			</blobs>
		</layer>
		<layer name="98" type="ReLU" precision="FP32" id="17">
			<input>
				<port id="0">
					<dim>1</dim>
					<dim>64</dim>
					<dim>30</dim>
					<dim>30</dim>
				</port>
			</input>
			<output>
				<port id="1">
					<dim>1</dim>
					<dim>64</dim>
					<dim>30</dim>
					<dim>30</dim>
				</port>
			</output>
		</layer>
		<layer name="Mul1_2025/Fused_Mul_/FusedScaleShift_" type="ScaleShift" precision="FP32" id="18">
			<data broadcast="0" />
			<input>
				<port id="0">
					<dim>1</dim>
					<dim>64</dim>
					<dim>30</dim>
					<dim>30</dim>
				</port>
			</input>
			<output>
				<port id="1">
					<dim>1</dim>
					<dim>64</dim>
					<dim>30</dim>
					<dim>30</dim>
				</port>
			</output>
			<blobs>
				<biases offset="193328" size="256" />
				<weights offset="193584" size="256" />
			</blobs>
		</layer>
		<layer name="100" type="Convolution" precision="FP32" id="19">
			<data dilations="1,1" group="1" kernel="3,3" output="32" pads_begin="1,1" pads_end="1,1" quantization_level="I8" strides="2,2" />
			<input>
				<port id="0">
					<dim>1</dim>
					<dim>64</dim>
					<dim>30</dim>
					<dim>30</dim>
				</port>
			</input>
			<output>
				<port id="1">
					<dim>1</dim>
					<dim>32</dim>
					<dim>15</dim>
					<dim>15</dim>
				</port>
			</output>
			<blobs>
				<biases offset="193840" size="128" />
				<weights offset="193968" size="73728" />
			</blobs>
		</layer>
		<layer name="110" type="Concat" precision="FP32" id="20">
			<data axis="1" />
			<input>
				<port id="0">
					<dim>1</dim>
					<dim>32</dim>
					<dim>15</dim>
					<dim>15</dim>
				</port>
				<port id="1">
					<dim>1</dim>
					<dim>32</dim>
					<dim>15</dim>
					<dim>15</dim>
				</port>
			</input>
			<output>
				<port id="2">
					<dim>1</dim>
					<dim>64</dim>
					<dim>15</dim>
					<dim>15</dim>
				</port>
			</output>
		</layer>
		<layer name="111" type="Convolution" precision="FP32" id="21">
			<data dilations="1,1" group="1" kernel="3,3" output="128" pads_begin="1,1" pads_end="1,1" quantization_level="I8" strides="1,1" />
			<input>
				<port id="0">
					<dim>1</dim>
					<dim>64</dim>
					<dim>15</dim>
					<dim>15</dim>
				</port>
			</input>
			<output>
				<port id="1">
					<dim>1</dim>
					<dim>128</dim>
					<dim>15</dim>
					<dim>15</dim>
				</port>
			</output>
			<blobs>
				<biases offset="267696" size="512" />
				<weights offset="268208" size="294912" />
			</blobs>
		</layer>
		<layer name="112" type="ReLU" precision="FP32" id="22">
			<input>
				<port id="0">
					<dim>1</dim>
					<dim>128</dim>
					<dim>15</dim>
					<dim>15</dim>
				</port>
			</input>
			<output>
				<port id="1">
					<dim>1</dim>
					<dim>128</dim>
					<dim>15</dim>
					<dim>15</dim>
				</port>
			</output>
		</layer>
		<layer name="Mul1_1989/Fused_Mul_/FusedScaleShift_" type="ScaleShift" precision="FP32" id="23">
			<data broadcast="0" />
			<input>
				<port id="0">
					<dim>1</dim>
					<dim>128</dim>
					<dim>15</dim>
					<dim>15</dim>
				</port>
			</input>
			<output>
				<port id="1">
					<dim>1</dim>
					<dim>128</dim>
					<dim>15</dim>
					<dim>15</dim>
				</port>
			</output>
			<blobs>
				<biases offset="563120" size="512" />
				<weights offset="563632" size="512" />
			</blobs>
		</layer>
		<layer name="114" type="Convolution" precision="FP32" id="24">
			<data dilations="1,1" group="1" kernel="3,3" output="64" pads_begin="1,1" pads_end="1,1" quantization_level="I8" strides="2,2" />
			<input>
				<port id="0">
					<dim>1</dim>
					<dim>128</dim>
					<dim>15</dim>
					<dim>15</dim>
				</port>
			</input>
			<output>
				<port id="1">
					<dim>1</dim>
					<dim>64</dim>
					<dim>8</dim>
					<dim>8</dim>
				</port>
			</output>
			<blobs>
				<biases offset="564144" size="256" />
				<weights offset="564400" size="294912" />
			</blobs>
		</layer>
		<layer name="115" type="Convolution" precision="FP32" id="25">
			<data dilations="1,1" group="1" kernel="3,3" output="128" pads_begin="1,1" pads_end="1,1" quantization_level="I8" strides="1,1" />
			<input>
				<port id="0">
					<dim>1</dim>
					<dim>64</dim>
					<dim>8</dim>
					<dim>8</dim>
				</port>
			</input>
			<output>
				<port id="1">
					<dim>1</dim>
					<dim>128</dim>
					<dim>8</dim>
					<dim>8</dim>
				</port>
			</output>
			<blobs>
				<biases offset="859312" size="512" />
				<weights offset="859824" size="294912" />
			</blobs>
		</layer>
		<layer name="116" type="ReLU" precision="FP32" id="26">
			<input>
				<port id="0">
					<dim>1</dim>
					<dim>128</dim>
					<dim>8</dim>
					<dim>8</dim>
				</port>
			</input>
			<output>
				<port id="1">
					<dim>1</dim>
					<dim>128</dim>
					<dim>8</dim>
					<dim>8</dim>
				</port>
			</output>
		</layer>
		<layer name="Mul1_/Fused_Mul_/FusedScaleShift_" type="ScaleShift" precision="FP32" id="27">
			<data broadcast="0" />
			<input>
				<port id="0">
					<dim>1</dim>
					<dim>128</dim>
					<dim>8</dim>
					<dim>8</dim>
				</port>
			</input>
			<output>
				<port id="1">
					<dim>1</dim>
					<dim>128</dim>
					<dim>8</dim>
					<dim>8</dim>
				</port>
			</output>
			<blobs>
				<biases offset="1154736" size="512" />
				<weights offset="1155248" size="512" />
			</blobs>
		</layer>
		<layer name="118" type="Convolution" precision="FP32" id="28">
			<data dilations="1,1" group="1" kernel="3,3" output="64" pads_begin="0,0" pads_end="0,0" quantization_level="I8" strides="2,2" />
			<input>
				<port id="0">
					<dim>1</dim>
					<dim>128</dim>
					<dim>8</dim>
					<dim>8</dim>
				</port>
			</input>
			<output>
				<port id="1">
					<dim>1</dim>
					<dim>64</dim>
					<dim>3</dim>
					<dim>3</dim>
				</port>
			</output>
			<blobs>
				<biases offset="1155760" size="256" />
				<weights offset="1156016" size="294912" />
			</blobs>
		</layer>
		<layer name="119" type="Convolution" precision="FP32" id="29">
			<data dilations="1,1" group="1" kernel="3,3" output="256" pads_begin="1,1" pads_end="1,1" quantization_level="I8" strides="1,1" />
			<input>
				<port id="0">
					<dim>1</dim>
					<dim>64</dim>
					<dim>3</dim>
					<dim>3</dim>
				</port>
			</input>
			<output>
				<port id="1">
					<dim>1</dim>
					<dim>256</dim>
					<dim>3</dim>
					<dim>3</dim>
				</port>
			</output>
			<blobs>
				<biases offset="1450928" size="1024" />
				<weights offset="1451952" size="589824" />
			</blobs>
		</layer>
		<layer name="120" type="ReLU" precision="FP32" id="30">
			<input>
				<port id="0">
					<dim>1</dim>
					<dim>256</dim>
					<dim>3</dim>
					<dim>3</dim>
				</port>
			</input>
			<output>
				<port id="1">
					<dim>1</dim>
					<dim>256</dim>
					<dim>3</dim>
					<dim>3</dim>
				</port>
			</output>
		</layer>
		<layer name="Mul1_2001/Fused_Mul_/FusedScaleShift_" type="ScaleShift" precision="FP32" id="31">
			<data broadcast="0" />
			<input>
				<port id="0">
					<dim>1</dim>
					<dim>256</dim>
					<dim>3</dim>
					<dim>3</dim>
				</port>
			</input>
			<output>
				<port id="1">
					<dim>1</dim>
					<dim>256</dim>
					<dim>3</dim>
					<dim>3</dim>
				</port>
			</output>
			<blobs>
				<biases offset="2041776" size="1024" />
				<weights offset="2042800" size="1024" />
			</blobs>
		</layer>
		<layer name="122" type="Convolution" precision="FP32" id="32">
			<data dilations="1,1" group="1" kernel="3,3" output="512" pads_begin="0,0" pads_end="0,0" quantization_level="I8" strides="1,1" />
			<input>
				<port id="0">
					<dim>1</dim>
					<dim>256</dim>
					<dim>3</dim>
					<dim>3</dim>
				</port>
			</input>
			<output>
				<port id="1">
					<dim>1</dim>
					<dim>512</dim>
					<dim>1</dim>
					<dim>1</dim>
				</port>
			</output>
			<blobs>
				<biases offset="2043824" size="2048" />
				<weights offset="2045872" size="4718592" />
			</blobs>
		</layer>
		<layer name="head_pose_angles" type="Input" precision="FP32" id="33">
			<output>
				<port id="0">
					<dim>1</dim>
					<dim>3</dim>
				</port>
			</output>
		</layer>
		<layer name="gaze_vector/Dims/Output_0/Data__const" type="Const" precision="I32" id="34">
			<output>
				<port id="0">
					<dim>1</dim>
				</port>
			</output>
			<blobs>
				<custom offset="6764464" size="4" />
			</blobs>
		</layer>
		<layer name="150/Dims/Output_0/Data__const" type="Const" precision="I32" id="35">
			<output>
				<port id="0">
					<dim>1</dim>
				</port>
			</output>
			<blobs>
				<custom offset="6764468" size="4" />
			</blobs>
		</layer>
		<layer name="141/Dims/Output_0/Data__const" type="Const" precision="I32" id="36">
			<output>
				<port id="0">
					<dim>1</dim>
				</port>
			</output>
			<blobs>
				<custom offset="6764472" size="4" />
			</blobs>
		</layer>
		<layer name="140/Dims/Output_0/Data__const" type="Const" precision="I32" id="37">
			<output>
				<port id="0">
					<dim>1</dim>
				</port>
			</output>
			<blobs>
				<custom offset="6764476" size="4" />
			</blobs>
		</layer>
		<layer name="137/Output_0/Data__const" type="Const" precision="I32" id="38">
			<output>
				<port id="0">
					<dim>2</dim>
				</port>
			</output>
			<blobs>
				<custom offset="6764480" size="8" />
			</blobs>
		</layer>
		<layer name="138" type="Reshape" precision="FP32" id="39">
			<data dim="" />
			<input>
				<port id="0">
					<dim>1</dim>
					<dim>3</dim>
				</port>
				<port id="1">
					<dim>2</dim>
				</port>
			</input>
			<output>
				<port id="2">
					<dim>1</dim>
					<dim>3</dim>
				</port>
			</output>
		</layer>
		<layer name="129/Output_0/Data__const" type="Const" precision="I32" id="40">
			<output>
				<port id="0">
					<dim>2</dim>
				</port>
			</output>
			<blobs>
				<custom offset="6764488" size="8" />
			</blobs>
		</layer>
		<layer name="130" type="Reshape" precision="FP32" id="41">
			<data dim="" />
			<input>
				<port id="0">
					<dim>1</dim>
					<dim>512</dim>
					<dim>1</dim>
					<dim>1</dim>
				</port>
				<port id="1">
					<dim>2</dim>
				</port>
			</input>
			<output>
				<port id="2">
					<dim>1</dim>
					<dim>512</dim>
				</port>
			</output>
		</layer>
		<layer name="139" type="Concat" precision="FP32" id="42">
			<data axis="1" />
			<input>
				<port id="0">
					<dim>1</dim>
					<dim>512</dim>
				</port>
				<port id="1">
					<dim>1</dim>
					<dim>3</dim>
				</port>
			</input>
			<output>
				<port id="2">
					<dim>1</dim>
					<dim>515</dim>
				</port>
			</output>
		</layer>
		<layer name="140165" type="Unsqueeze" precision="FP32" id="43">
			<input>
				<port id="0">
					<dim>1</dim>
					<dim>515</dim>
				</port>
				<port id="1">
					<dim>1</dim>
				</port>
			</input>
			<output>
				<port id="2">
					<dim>1</dim>
					<dim>515</dim>
					<dim>1</dim>
				</port>
			</output>
		</layer>
		<layer name="141161" type="Unsqueeze" precision="FP32" id="44">
			<input>
				<port id="0">
					<dim>1</dim>
					<dim>515</dim>
					<dim>1</dim>
				</port>
				<port id="1">
					<dim>1</dim>
				</port>
			</input>
			<output>
				<port id="2">
					<dim>1</dim>
					<dim>515</dim>
					<dim>1</dim>
					<dim>1</dim>
				</port>
			</output>
		</layer>
		<layer name="142" type="Convolution" precision="FP32" id="45">
			<data dilations="1,1" group="1" kernel="1,1" output="320" pads_begin="0,0" pads_end="0,0" quantization_level="I8" strides="1,1" />
			<input>
				<port id="0">
					<dim>1</dim>
					<dim>515</dim>
					<dim>1</dim>
					<dim>1</dim>
				</port>
			</input>
			<output>
				<port id="1">
					<dim>1</dim>
					<dim>320</dim>
					<dim>1</dim>
					<dim>1</dim>
				</port>
			</output>
			<blobs>
				<biases offset="6764496" size="1280" />
				<weights offset="6765776" size="659200" />
			</blobs>
		</layer>
		<layer name="144" type="ReLU" precision="FP32" id="46">
			<input>
				<port id="0">
					<dim>1</dim>
					<dim>320</dim>
					<dim>1</dim>
					<dim>1</dim>
				</port>
			</input>
			<output>
				<port id="1">
					<dim>1</dim>
					<dim>320</dim>
					<dim>1</dim>
					<dim>1</dim>
				</port>
			</output>
		</layer>
		<layer name="145" type="Convolution" precision="FP32" id="47">
			<data dilations="1,1" group="1" kernel="1,1" output="80" pads_begin="0,0" pads_end="0,0" quantization_level="I8" strides="1,1" />
			<input>
				<port id="0">
					<dim>1</dim>
					<dim>320</dim>
					<dim>1</dim>
					<dim>1</dim>
				</port>
			</input>
			<output>
				<port id="1">
					<dim>1</dim>
					<dim>80</dim>
					<dim>1</dim>
					<dim>1</dim>
				</port>
			</output>
			<blobs>
				<biases offset="7424976" size="320" />
				<weights offset="7425296" size="102400" />
			</blobs>
		</layer>
		<layer name="146" type="ReLU" precision="FP32" id="48">
			<input>
				<port id="0">
					<dim>1</dim>
					<dim>80</dim>
					<dim>1</dim>
					<dim>1</dim>
				</port>
			</input>
			<output>
				<port id="1">
					<dim>1</dim>
					<dim>80</dim>
					<dim>1</dim>
					<dim>1</dim>
				</port>
			</output>
		</layer>
		<layer name="Mul1_2049/Fused_Mul_/FusedScaleShift_" type="ScaleShift" precision="FP32" id="49">
			<data broadcast="0" />
			<input>
				<port id="0">
					<dim>1</dim>
					<dim>80</dim>
					<dim>1</dim>
					<dim>1</dim>
				</port>
			</input>
			<output>
				<port id="1">
					<dim>1</dim>
					<dim>80</dim>
					<dim>1</dim>
					<dim>1</dim>
				</port>
			</output>
			<blobs>
				<biases offset="7527696" size="320" />
				<weights offset="7528016" size="320" />
			</blobs>
		</layer>
		<layer name="148" type="Convolution" precision="FP32" id="50">
			<data dilations="1,1" group="1" kernel="1,1" output="3" pads_begin="0,0" pads_end="0,0" quantization_level="I8" strides="1,1" />
			<input>
				<port id="0">
					<dim>1</dim>
					<dim>80</dim>
					<dim>1</dim>
					<dim>1</dim>
				</port>
			</input>
			<output>
				<port id="1">
					<dim>1</dim>
					<dim>3</dim>
					<dim>1</dim>
					<dim>1</dim>
				</port>
			</output>
			<blobs>
				<biases offset="7528336" size="12" />
				<weights offset="7528348" size="960" />
			</blobs>
		</layer>
		<layer name="150" type="Squeeze" precision="FP32" id="51">
			<input>
				<port id="0">
					<dim>1</dim>
					<dim>3</dim>
					<dim>1</dim>
					<dim>1</dim>
				</port>
				<port id="1">
					<dim>1</dim>
				</port>
			</input>
			<output>
				<port id="2">
					<dim>1</dim>
					<dim>3</dim>
					<dim>1</dim>
				</port>
			</output>
		</layer>
		<layer name="gaze_vector" type="Squeeze" precision="FP32" id="52">
			<input>
				<port id="0">
					<dim>1</dim>
					<dim>3</dim>
					<dim>1</dim>
				</port>
				<port id="1">
					<dim>1</dim>
				</port>
			</input>
			<output>
				<port id="2">
					<dim>1</dim>
					<dim>3</dim>
				</port>
			</output>
		</layer>
	</layers>
	<edges>
		<edge from-layer="0" from-port="0" to-layer="1" to-port="0" />
		<edge from-layer="1" from-port="1" to-layer="2" to-port="0" />
		<edge from-layer="2" from-port="1" to-layer="3" to-port="0" />
		<edge from-layer="3" from-port="1" to-layer="4" to-port="0" />
		<edge from-layer="4" from-port="1" to-layer="5" to-port="0" />
		<edge from-layer="5" from-port="1" to-layer="6" to-port="0" />
		<edge from-layer="6" from-port="1" to-layer="7" to-port="0" />
		<edge from-layer="7" from-port="1" to-layer="8" to-port="0" />
		<edge from-layer="8" from-port="1" to-layer="9" to-port="0" />
		<edge from-layer="9" from-port="1" to-layer="20" to-port="1" />
		<edge from-layer="10" from-port="0" to-layer="11" to-port="0" />
		<edge from-layer="11" from-port="1" to-layer="12" to-port="0" />
		<edge from-layer="12" from-port="1" to-layer="13" to-port="0" />
		<edge from-layer="13" from-port="1" to-layer="14" to-port="0" />
		<edge from-layer="14" from-port="1" to-layer="15" to-port="0" />
		<edge from-layer="15" from-port="1" to-layer="16" to-port="0" />
		<edge from-layer="16" from-port="1" to-layer="17" to-port="0" />
		<edge from-layer="17" from-port="1" to-layer="18" to-port="0" />
		<edge from-layer="18" from-port="1" to-layer="19" to-port="0" />
		<edge from-layer="19" from-port="1" to-layer="20" to-port="0" />
		<edge from-layer="20" from-port="2" to-layer="21" to-port="0" />
		<edge from-layer="21" from-port="1" to-layer="22" to-port="0" />
		<edge from-layer="22" from-port="1" to-layer="23" to-port="0" />
		<edge from-layer="23" from-port="1" to-layer="24" to-port="0" />
		<edge from-layer="24" from-port="1" to-layer="25" to-port="0" />
		<edge from-layer="25" from-port="1" to-layer="26" to-port="0" />
		<edge from-layer="26" from-port="1" to-layer="27" to-port="0" />
		<edge from-layer="27" from-port="1" to-layer="28" to-port="0" />
		<edge from-layer="28" from-port="1" to-layer="29" to-port="0" />
		<edge from-layer="29" from-port="1" to-layer="30" to-port="0" />
		<edge from-layer="30" from-port="1" to-layer="31" to-port="0" />
		<edge from-layer="31" from-port="1" to-layer="32" to-port="0" />
		<edge from-layer="32" from-port="1" to-layer="41" to-port="0" />
		<edge from-layer="33" from-port="0" to-layer="39" to-port="0" />
		<edge from-layer="34" from-port="0" to-layer="52" to-port="1" />
		<edge from-layer="35" from-port="0" to-layer="51" to-port="1" />
		<edge from-layer="36" from-port="0" to-layer="44" to-port="1" />
		<edge from-layer="37" from-port="0" to-layer="43" to-port="1" />
		<edge from-layer="38" from-port="0" to-layer="39" to-port="1" />
		<edge from-layer="39" from-port="2" to-layer="42" to-port="1" />
		<edge from-layer="40" from-port="0" to-layer="41" to-port="1" />
		<edge from-layer="41" from-port="2" to-layer="42" to-port="0" />
		<edge from-layer="42" from-port="2" to-layer="43" to-port="0" />
		<edge from-layer="43" from-port="2" to-layer="44" to-port="0" />
		<edge from-layer="44" from-port="2" to-layer="45" to-port="0" />
		<edge from-layer="45" from-port="1" to-layer="46" to-port="0" />
		<edge from-layer="46" from-port="1" to-layer="47" to-port="0" />
		<edge from-layer="47" from-port="1" to-layer="48" to-port="0" />
		<edge from-layer="48" from-port="1" to-layer="49" to-port="0" />
		<edge from-layer="49" from-port="1" to-layer="50" to-port="0" />
		<edge from-layer="50" from-port="1" to-layer="51" to-port="0" />
		<edge from-layer="51" from-port="2" to-layer="52" to-port="0" />
	</edges>
	<statistics>
		<layer>
			<name>100</name>
			<min>… -2.783144</min>
			<max>… 4.616573</max>
		</layer>
		<layer>
			<name>102</name>
			<min>… -1.581124</min>
			<max>… 1.317519</max>
		</layer>
		<layer>
			<name>103</name>
			<min>… -0.000000</min>
			<max>… 1.317519</max>
		</layer>
		<layer>
			<name>105</name>
			<min>-4.705877, -3.743305, -2.473425, -10.559075, -5.080588, -14.930145, -7.648925, -4.355330, -4.397806, -6.204613, -3.038605, -2.643564, -3.426172, -2.474770, -2.749660, -0.633573</min>
			<max>6.819144, 1.460532, 11.955288, 3.323316, 7.167874, 5.366845, 3.341150, 5.684332, 5.277563, 9.419109, 3.979720, 6.511905, 7.468808, 4.213031, 6.818613, 10.615013</max>
		</layer>
		<layer>
			<name>106</name>
			<min>… -9.214780</min>
			<max>… 4.377455</max>
		</layer>
		<layer>
			<name>107</name>
			<min>… -0.000000</min>
			<max>… 4.377455</max>
		</layer>
		<layer>
			<name>109</name>
			<min>… -6.694974</min>
			<max>… 5.606848</max>
		</layer>
		<layer>
			<name>110</name>
			<min>… -6.694974</min>
			<max>… 5.606848</max>
		</layer>
		<layer>
			<name>111</name>
			<min>… -24.812862</min>
			<max>… 23.407598</max>
		</layer>
		<layer>
			<name>112</name>
			<min>… -0.000000</min>
			<max>… 23.407598</max>
		</layer>
		<layer>
			<name>114</name>
			<min>… -13.603402</min>
			<max>… 7.985312</max>
		</layer>
		<layer>
			<name>115</name>
			<min>… -20.878328</min>
			<max>… 14.851284</max>
		</layer>
		<layer>
			<name>116</name>
			<min>… -0.000000</min>
			<max>… 14.851284</max>
		</layer>
		<layer>
			<name>118</name>
			<min>… -9.408548</min>
			<max>… 3.640456</max>
		</layer>
		<layer>
			<name>119</name>
			<min>… -18.267355</min>
			<max>… 18.377604</max>
		</layer>
		<layer>
			<name>120</name>
			<min>… -0.000000</min>
			<max>… 18.377604</max>
		</layer>
		<layer>
			<name>122</name>
			<min>… -0.836237</min>
			<max>… 0.893412</max>
		</layer>
		<layer>
			<name>130</name>
			<min>… -0.836237</min>
			<max>… 0.893412</max>
		</layer>
		<layer>
			<name>138</name>
			<min>-20.212294, -11.653461, -4.319579</min>
			<max>18.249016, 7.722204, 3.698320</max>
		</layer>
		<layer>
			<name>139</name>
			<min>… -4.319579</min>
			<max>… 3.698320</max>
		</layer>
		<layer>
			<name>140165</name>
			<min>-21.096836</min>
			<max>21.746496</max>
		</layer>
		<layer>
			<name>141161</name>
			<min>… -4.319579</min>
			<max>… 3.698320</max>
		</layer>
		<layer>
			<name>142</name>
			<min>… -2.892453</min>
			<max>… 1.008283</max>
		</layer>
		<layer>
			<name>144</name>
			<min>… -0.000000</min>
			<max>… 1.008283</max>
		</layer>
		<layer>
			<name>145</name>
			<min>… -2.030449</min>
			<max>… 3.238811</max>
		</layer>
		<layer>
			<name>146</name>
			<min>… -0.000000</min>
			<max>… 3.238811</max>
		</layer>
		<layer>
			<name>148</name>
			<min>-0.842041, -0.385890, -0.985533</min>
			<max>0.729150, 0.401984, -0.388554</max>
		</layer>
		<layer>
			<name>150</name>
			<min>-0.985533</min>
			<max>0.729150</max>
		</layer>
		<layer>
			<name>93</name>
			<min>… -1.779997</min>
			<max>… 1.664015</max>
		</layer>
		<layer>
			<name>94</name>
			<min>… -0.000000</min>
			<max>… 1.664015</max>
		</layer>
		<layer>
			<name>96</name>
			<min>-9.414124, -2.571274, -6.007916, -4.762044, -3.968719, -1.230511, -8.682503, -6.981716, -6.444477, -15.655073, -4.228568, -7.425379, -1.647095, -5.343184, -2.894856, -5.115822</min>
			<max>1.982099, 4.252896, 3.771739, 8.263873, 3.775960, 7.685032, 0.664469, 9.452987, 1.193648, 5.071796, 3.926416, 1.278504, 11.176058, 6.219607, 6.090422, 4.973829</max>
		</layer>
		<layer>
			<name>97</name>
			<min>… -4.424049</min>
			<max>… 3.675631</max>
		</layer>
		<layer>
			<name>98</name>
			<min>… -0.000000</min>
			<max>… 3.675631</max>
		</layer>
		<layer>
			<name>Mul1_/Fused_Mul_/FusedScaleShift_</name>
			<min>… -0.375019</min>
			<max>… 3.311652</max>
		</layer>
		<layer>
			<name>Mul1_1941/Fused_Mul_/FusedScaleShift_</name>
			<min>… 0.009768</min>
			<max>… 6.481504</max>
		</layer>
		<layer>
			<name>Mul1_1953/Fused_Mul_/FusedScaleShift_</name>
			<min>… 0.103102</min>
			<max>… 2.325093</max>
		</layer>
		<layer>
			<name>Mul1_1965/Fused_Mul_/FusedScaleShift_</name>
			<min>-0.555411, -1.316109, -1.492219</min>
			<max>1.289437, 2.844954, 2.198137</max>
		</layer>
		<layer>
			<name>Mul1_1977/Fused_Mul_/FusedScaleShift_</name>
			<min>… -0.111241</min>
			<max>… 2.498191</max>
		</layer>
		<layer>
			<name>Mul1_1989/Fused_Mul_/FusedScaleShift_</name>
			<min>… 0.017687</min>
			<max>… 1.503018</max>
		</layer>
		<layer>
			<name>Mul1_2001/Fused_Mul_/FusedScaleShift_</name>
			<min>… -0.363562</min>
			<max>… 4.908791</max>
		</layer>
		<layer>
			<name>Mul1_2025/Fused_Mul_/FusedScaleShift_</name>
			<min>… -0.054285</min>
			<max>… 0.683346</max>
		</layer>
		<layer>
			<name>Mul1_2037/Fused_Mul_/FusedScaleShift_</name>
			<min>-0.576694, -0.553123, -0.778137</min>
			<max>1.673465, 1.352279, 1.455054</max>
		</layer>
		<layer>
			<name>Mul1_2049/Fused_Mul_/FusedScaleShift_</name>
			<min>… -0.789938</min>
			<max>… 1.332517</max>
		</layer>
		<layer>
			<name>gaze_vector</name>
			<min>-0.842041, -0.385890, -0.985533</min>
			<max>0.729150, 0.401984, -0.388554</max>
		</layer>
		<layer>
			<name>head_pose_angles</name>
			<min>-20.212294, -11.653461, -4.319579</min>
			<max>18.249016, 7.722204, 3.698320</max>
		</layer>
		<layer>
			<name>left_eye_image</name>
			<min>0.000000, 0.000000, 0.000000</min>
			<max>255.000000, 255.000000, 255.000000</max>
		</layer>
		<layer>
			<name>right_eye_image</name>
			<min>0.000000, 0.000000, 0.000000</min>
			<max>255.000000, 255.000000, 255.000000</max>
		</layer>
	</statistics>
</net>
